{
  "nodes": [
    {
      "op": "null", 
      "name": "data", 
      "inputs": []
    }, 
    {
      "op": "cvm_op", 
      "name": "cvm_clip_0", 
      "attrs": {
        "flatten_data": "1", 
        "func_name": "cvm_clip", 
        "num_inputs": "1", 
        "num_outputs": "1"
      }, 
      "inputs": [[0, 0, 0]]
    }, 
    {
      "op": "null", 
      "name": "LeNet_conv0_weight_0", 
      "inputs": []
    }, 
    {
      "op": "null", 
      "name": "LeNet_conv0_bias_0", 
      "inputs": []
    }, 
    {
      "op": "cvm_op", 
      "name": "conv2d_0", 
      "attrs": {
        "flatten_data": "0", 
        "func_name": "conv2d", 
        "num_inputs": "3", 
        "num_outputs": "1"
      }, 
      "inputs": [[1, 0, 0], [2, 0, 0], [3, 0, 0]]
    }, 
    {
      "op": "cvm_op", 
      "name": "relu_0", 
      "attrs": {
        "flatten_data": "1", 
        "func_name": "relu", 
        "num_inputs": "1", 
        "num_outputs": "1"
      }, 
      "inputs": [[4, 0, 0]]
    }, 
    {
      "op": "cvm_op", 
      "name": "max_pool2d_0", 
      "attrs": {
        "flatten_data": "0", 
        "func_name": "max_pool2d", 
        "num_inputs": "1", 
        "num_outputs": "1"
      }, 
      "inputs": [[5, 0, 0]]
    }, 
    {
      "op": "cvm_op", 
      "name": "cvm_clip_1", 
      "attrs": {
        "flatten_data": "1", 
        "func_name": "cvm_clip", 
        "num_inputs": "1", 
        "num_outputs": "1"
      }, 
      "inputs": [[6, 0, 0]]
    }, 
    {
      "op": "null", 
      "name": "const_var_12966", 
      "inputs": []
    }, 
    {
      "op": "cvm_op", 
      "name": "broadcast_mul_0", 
      "attrs": {
        "flatten_data": "0", 
        "func_name": "broadcast_mul", 
        "num_inputs": "2", 
        "num_outputs": "1"
      }, 
      "inputs": [[7, 0, 0], [8, 0, 0]]
    }, 
    {
      "op": "cvm_op", 
      "name": "cvm_right_shift_0", 
      "attrs": {
        "flatten_data": "1", 
        "func_name": "cvm_right_shift", 
        "num_inputs": "1", 
        "num_outputs": "1"
      }, 
      "inputs": [[9, 0, 0]]
    }, 
    {
      "op": "null", 
      "name": "LeNet_conv1_weight_0", 
      "inputs": []
    }, 
    {
      "op": "null", 
      "name": "LeNet_conv1_bias_0", 
      "inputs": []
    }, 
    {
      "op": "cvm_op", 
      "name": "conv2d_1", 
      "attrs": {
        "flatten_data": "0", 
        "func_name": "conv2d", 
        "num_inputs": "3", 
        "num_outputs": "1"
      }, 
      "inputs": [[10, 0, 0], [11, 0, 0], [12, 0, 0]]
    }, 
    {
      "op": "cvm_op", 
      "name": "relu_1", 
      "attrs": {
        "flatten_data": "1", 
        "func_name": "relu", 
        "num_inputs": "1", 
        "num_outputs": "1"
      }, 
      "inputs": [[13, 0, 0]]
    }, 
    {
      "op": "cvm_op", 
      "name": "max_pool2d_1", 
      "attrs": {
        "flatten_data": "0", 
        "func_name": "max_pool2d", 
        "num_inputs": "1", 
        "num_outputs": "1"
      }, 
      "inputs": [[14, 0, 0]]
    }, 
    {
      "op": "cvm_op", 
      "name": "flatten_0", 
      "attrs": {
        "flatten_data": "0", 
        "func_name": "flatten", 
        "num_inputs": "1", 
        "num_outputs": "1"
      }, 
      "inputs": [[15, 0, 0]]
    }, 
    {
      "op": "cvm_op", 
      "name": "cvm_clip_2", 
      "attrs": {
        "flatten_data": "1", 
        "func_name": "cvm_clip", 
        "num_inputs": "1", 
        "num_outputs": "1"
      }, 
      "inputs": [[16, 0, 0]]
    }, 
    {
      "op": "null", 
      "name": "const_var_7559", 
      "inputs": []
    }, 
    {
      "op": "cvm_op", 
      "name": "broadcast_mul_1", 
      "attrs": {
        "flatten_data": "0", 
        "func_name": "broadcast_mul", 
        "num_inputs": "2", 
        "num_outputs": "1"
      }, 
      "inputs": [[17, 0, 0], [18, 0, 0]]
    }, 
    {
      "op": "cvm_op", 
      "name": "cvm_right_shift_1", 
      "attrs": {
        "flatten_data": "1", 
        "func_name": "cvm_right_shift", 
        "num_inputs": "1", 
        "num_outputs": "1"
      }, 
      "inputs": [[19, 0, 0]]
    }, 
    {
      "op": "cvm_op", 
      "name": "flatten_1", 
      "attrs": {
        "flatten_data": "0", 
        "func_name": "flatten", 
        "num_inputs": "1", 
        "num_outputs": "1"
      }, 
      "inputs": [[20, 0, 0]]
    }, 
    {
      "op": "null", 
      "name": "LeNet_dense0_weight_0", 
      "inputs": []
    }, 
    {
      "op": "null", 
      "name": "LeNet_dense0_bias_0", 
      "inputs": []
    }, 
    {
      "op": "cvm_op", 
      "name": "dense_0", 
      "attrs": {
        "flatten_data": "0", 
        "func_name": "dense", 
        "num_inputs": "3", 
        "num_outputs": "1"
      }, 
      "inputs": [[21, 0, 0], [22, 0, 0], [23, 0, 0]]
    }, 
    {
      "op": "cvm_op", 
      "name": "relu_2", 
      "attrs": {
        "flatten_data": "1", 
        "func_name": "relu", 
        "num_inputs": "1", 
        "num_outputs": "1"
      }, 
      "inputs": [[24, 0, 0]]
    }, 
    {
      "op": "cvm_op", 
      "name": "cvm_clip_3", 
      "attrs": {
        "flatten_data": "1", 
        "func_name": "cvm_clip", 
        "num_inputs": "1", 
        "num_outputs": "1"
      }, 
      "inputs": [[25, 0, 0]]
    }, 
    {
      "op": "null", 
      "name": "const_var_4128", 
      "inputs": []
    }, 
    {
      "op": "cvm_op", 
      "name": "broadcast_mul_2", 
      "attrs": {
        "flatten_data": "0", 
        "func_name": "broadcast_mul", 
        "num_inputs": "2", 
        "num_outputs": "1"
      }, 
      "inputs": [[26, 0, 0], [27, 0, 0]]
    }, 
    {
      "op": "cvm_op", 
      "name": "cvm_right_shift_2", 
      "attrs": {
        "flatten_data": "1", 
        "func_name": "cvm_right_shift", 
        "num_inputs": "1", 
        "num_outputs": "1"
      }, 
      "inputs": [[28, 0, 0]]
    }, 
    {
      "op": "cvm_op", 
      "name": "flatten_2", 
      "attrs": {
        "flatten_data": "0", 
        "func_name": "flatten", 
        "num_inputs": "1", 
        "num_outputs": "1"
      }, 
      "inputs": [[29, 0, 0]]
    }, 
    {
      "op": "null", 
      "name": "LeNet_dense1_weight_0", 
      "inputs": []
    }, 
    {
      "op": "null", 
      "name": "LeNet_dense1_bias_0", 
      "inputs": []
    }, 
    {
      "op": "cvm_op", 
      "name": "dense_1", 
      "attrs": {
        "flatten_data": "0", 
        "func_name": "dense", 
        "num_inputs": "3", 
        "num_outputs": "1"
      }, 
      "inputs": [[30, 0, 0], [31, 0, 0], [32, 0, 0]]
    }, 
    {
      "op": "cvm_op", 
      "name": "cvm_right_shift_3", 
      "attrs": {
        "flatten_data": "1", 
        "func_name": "cvm_right_shift", 
        "num_inputs": "1", 
        "num_outputs": "1"
      }, 
      "inputs": [[33, 0, 0]]
    }, 
    {
      "op": "cvm_op", 
      "name": "cvm_clip_4", 
      "attrs": {
        "flatten_data": "1", 
        "func_name": "cvm_clip", 
        "num_inputs": "1", 
        "num_outputs": "1"
      }, 
      "inputs": [[34, 0, 0]]
    }, 
    {
      "op": "null", 
      "name": "const_var_6024417", 
      "inputs": []
    }, 
    {
      "op": "cvm_op", 
      "name": "broadcast_mul_3", 
      "attrs": {
        "flatten_data": "0", 
        "func_name": "broadcast_mul", 
        "num_inputs": "2", 
        "num_outputs": "1"
      }, 
      "inputs": [[35, 0, 0], [36, 0, 0]]
    }, 
    {
      "op": "cvm_op", 
      "name": "cvm_right_shift_4", 
      "attrs": {
        "flatten_data": "1", 
        "func_name": "cvm_right_shift", 
        "num_inputs": "1", 
        "num_outputs": "1"
      }, 
      "inputs": [[37, 0, 0]]
    }
  ], 
  "arg_nodes": [
    0, 
    2, 
    3, 
    8, 
    11, 
    12, 
    18, 
    22, 
    23, 
    27, 
    31, 
    32, 
    36
  ], 
  "node_row_ptr": [
    0, 
    1, 
    2, 
    3, 
    4, 
    5, 
    6, 
    7, 
    8, 
    9, 
    10, 
    11, 
    12, 
    13, 
    14, 
    15, 
    16, 
    17, 
    18, 
    19, 
    20, 
    21, 
    22, 
    23, 
    24, 
    25, 
    26, 
    27, 
    28, 
    29, 
    30, 
    31, 
    32, 
    33, 
    34, 
    35, 
    36, 
    37, 
    38, 
    39
  ], 
  "heads": [[38, 0, 0]], 
  "attrs": {
    "dltype": ["list_str", [
        "int32", 
        "int32", 
        "int32", 
        "int32", 
        "int32", 
        "int32", 
        "int32", 
        "int32", 
        "int32", 
        "int32", 
        "int32", 
        "int32", 
        "int32", 
        "int32", 
        "int32", 
        "int32", 
        "int32", 
        "int32", 
        "int32", 
        "int32", 
        "int32", 
        "int32", 
        "int32", 
        "int32", 
        "int32", 
        "int32", 
        "int32", 
        "int32", 
        "int32", 
        "int32", 
        "int32", 
        "int32", 
        "int32", 
        "int32", 
        "int32", 
        "int32", 
        "int32", 
        "int32", 
        "int32"]], 
    "op_attrs": ["list_str", [
        "{\"precision\": \"8\"}", 
        "{\"precision\": \"8\"}", 
        "{\"__shape__\": \"(20, 1, 5, 5)\", \"precision\": \"8\"}", 
        "{\"__shape__\": \"(20,)\", \"precision\": \"14\"}", 
        "{\"layout\": \"NCHW\", \"kernel_layout\": \"OIHW\", \"kernel_size\": \"[5, 5]\", \"padding\": \"(0, 0)\", \"use_bias\": \"True\", \"strides\": \"(1, 1)\", \"channels\": \"20\", \"dilation\": \"(1, 1)\", \"groups\": \"1\"}", 
        "{}", 
        "{\"ceil_mode\": \"False\", \"padding\": \"(0, 0)\", \"pool_size\": \"[2, 2]\", \"strides\": \"(2, 2)\"}", 
        "{\"precision\": \"17\"}", 
        "{\"__shape__\": \"(1,)\", \"precision\": \"15\"}", 
        "{}", 
        "{\"shift_bit\": \"21\", \"precision\": \"8\"}", 
        "{\"__shape__\": \"(50, 20, 5, 5)\", \"precision\": \"8\"}", 
        "{\"__shape__\": \"(50,)\", \"precision\": \"14\"}", 
        "{\"layout\": \"NCHW\", \"kernel_layout\": \"OIHW\", \"kernel_size\": \"[5, 5]\", \"padding\": \"(0, 0)\", \"use_bias\": \"True\", \"strides\": \"(1, 1)\", \"channels\": \"50\", \"dilation\": \"(1, 1)\", \"groups\": \"1\"}", 
        "{}", 
        "{\"ceil_mode\": \"False\", \"padding\": \"(0, 0)\", \"pool_size\": \"[2, 2]\", \"strides\": \"(2, 2)\"}", 
        "{}", 
        "{\"precision\": \"18\"}", 
        "{\"__shape__\": \"(1,)\", \"precision\": \"14\"}", 
        "{}", 
        "{\"shift_bit\": \"21\", \"precision\": \"8\"}", 
        "{}", 
        "{\"__shape__\": \"(500, 800)\", \"precision\": \"8\"}", 
        "{\"__shape__\": \"(500,)\", \"precision\": \"13\"}", 
        "{\"use_bias\": \"True\", \"units\": \"500\"}", 
        "{}", 
        "{\"precision\": \"18\"}", 
        "{\"__shape__\": \"(1,)\", \"precision\": \"14\"}", 
        "{}", 
        "{\"shift_bit\": \"21\", \"precision\": \"8\"}", 
        "{}", 
        "{\"__shape__\": \"(10, 500)\", \"precision\": \"8\"}", 
        "{\"__shape__\": \"(10,)\", \"precision\": \"10\"}", 
        "{\"use_bias\": \"True\", \"units\": \"10\"}", 
        "{\"shift_bit\": \"10\", \"precision\": \"8\"}", 
        "{\"precision\": \"8\"}", 
        "{\"__shape__\": \"(1,)\", \"precision\": \"24\"}", 
        "{}", 
        "{\"shift_bit\": \"22\", \"precision\": \"8\"}"]], 
    "precision": ["list_int", [
        8, 
        8, 
        8, 
        14, 
        -1, 
        -1, 
        -1, 
        17, 
        15, 
        -1, 
        8, 
        8, 
        14, 
        -1, 
        -1, 
        -1, 
        -1, 
        18, 
        14, 
        -1, 
        8, 
        -1, 
        8, 
        13, 
        -1, 
        -1, 
        18, 
        14, 
        -1, 
        8, 
        -1, 
        8, 
        10, 
        -1, 
        8, 
        8, 
        24, 
        -1, 
        8]], 
    "shape": ["list_shape", [
        [1, 1, 28, 28], 
        [1, 1, 28, 28], 
        [20, 1, 5, 5], 
        [20], 
        [1, 20, 24, 24], 
        [1, 20, 24, 24], 
        [1, 20, 12, 12], 
        [1, 20, 12, 12], 
        [1], 
        [1, 20, 12, 12], 
        [1, 20, 12, 12], 
        [50, 20, 5, 5], 
        [50], 
        [1, 50, 8, 8], 
        [1, 50, 8, 8], 
        [1, 50, 4, 4], 
        [1, 800], 
        [1, 800], 
        [1], 
        [1, 800], 
        [1, 800], 
        [1, 800], 
        [500, 800], 
        [500], 
        [1, 500], 
        [1, 500], 
        [1, 500], 
        [1], 
        [1, 500], 
        [1, 500], 
        [1, 500], 
        [10, 500], 
        [10], 
        [1, 10], 
        [1, 10], 
        [1, 10], 
        [1], 
        [1, 10], 
        [1, 10]]], 
    "storage_id": ["list_int", [
        6, 
        0, 
        7, 
        8, 
        1, 
        0, 
        1, 
        0, 
        9, 
        1, 
        0, 
        10, 
        11, 
        1, 
        0, 
        1, 
        0, 
        1, 
        12, 
        0, 
        1, 
        0, 
        13, 
        14, 
        2, 
        3, 
        2, 
        15, 
        3, 
        2, 
        3, 
        16, 
        17, 
        4, 
        5, 
        4, 
        18, 
        5, 
        4]]
  }, 
  "version": "cvm_1.0.0"
}